…
2024-04-17 13:49:13.006299: I external/local_xla/xla/stream_executor/cuda/cuda_executor.cc:901] successful NUMA node read from SysFS had negative value (-1), but there must be at least one NUMA node, so returning NUMA node zero. See more at https://github.com/torvalds/linux/blob/v6.0/Documentation/ABI/testing/sysfs-bus-pci#L344-L355
2024-04-17 13:49:13.006457: I tensorflow/core/common_runtime/gpu/gpu_device.cc:1929] Created device /job:localhost/replica:0/task:0/device:GPU:0 with 5484 MB memory:  -> device: 0, name: NVIDIA GeForce GTX 1060 6GB, pci bus id: 0000:01:00.0, compute capability: 6.1
Num GPUs Available:  1
Model: "sequential"
_________________________________________________________________
 Layer (type)                Output Shape              Param #   
=================================================================
 conv2d (Conv2D)             (None, 32, 32, 16)        1216      
                                                                 
 batch_normalization (Batch  (None, 32, 32, 16)        64        
 Normalization)                                                  
                                                                 
 activation (Activation)     (None, 32, 32, 16)        0         
                                                                 
 max_pooling2d (MaxPooling2  (None, 16, 16, 16)        0         
 D)                                                              
                                                                 
 linear_bottleneck_block (L  (None, 16, 16, 32)        1344      
 inearBottleneckBlock)                                           
                                                                 
 linear_bottleneck_block_1   (None, 16, 16, 64)        3712      
 (LinearBottleneckBlock)                                         
                                                                 
 max_pooling2d_1 (MaxPoolin  (None, 8, 8, 64)          0         
 g2D)                                                            
                                                                 
 linear_bottleneck_block_2   (None, 8, 8, 64)          6208      
 (LinearBottleneckBlock)                                         
                                                                 
 linear_bottleneck_block_3   (None, 8, 8, 128)         11520     
 (LinearBottleneckBlock)                                         
                                                                 
 global_average_pooling2d (  (None, 128)               0         
 GlobalAveragePooling2D)                                         
                                                                 
 dropout (Dropout)           (None, 128)               0         
                                                                 
 dense (Dense)               (None, 10)                1290      
                                                                 
=================================================================
Total params: 25354 (99.04 KB)
Trainable params: 23818 (93.04 KB)
Non-trainable params: 1536 (6.00 KB)
_________________________________________________________________
2024-04-17 13:49:14.034388: W external/local_tsl/tsl/framework/cpu_allocator_impl.cc:83] Allocation of 614400000 exceeds 10% of free system memory.
…
